init_weights.pth (torch, 230266 bytes, 6 tensors)

seq.0.weight f8 [3, 1, 5, 5]
0	0xbfa72cbae64a5018	-0.04526313840065671
1	0xbfab1516b6c6c9b8	-0.05289526921423565
2	0x3fba232d57d5a67e	0.10209926027678226
3	0xbfba2139bb53e2cf	-0.1020694811194389
4	0xbfbb3a29d776706c	-0.10635625372236895
5	0xbfa8c7b9d0ff0954	-0.04839878727172456
6	0xbf9c5c451aeca8e8	-0.027695731895769266
7	0x3fc96e456f4642f5	0.1986777108509369
8	0xbfc8bb21d1066406	-0.19321081835076387
9	0x3f91bed03daf60b0	0.017329458012540655
10	0x3fc41775fbacfe0d	0.15696596897940687
11	0x3fb38dce1a91047a	0.0763825240001256
12	0x3fa23722c2cabd44	0.035576902654947534
13	0x3fbf0e81bf2e432a	0.12131510655877933
14	0xbfbc82260412d97f	-0.11136090850309265
15	0xbfc2ea190b7e386e	-0.14776909886535655
16	0x3fc249a0a02ce53d	0.14287193127692346
17	0xbfb9dada2059c083	-0.1009956673603956
18	0x3fc90d1cf48ca8e9	0.19571268025294522
19	0xbfab0c20a2923d74	-0.05282690033447582
20	0x3fc8bee1ac16555d	0.19332524206826465
21	0x3f9fd8c45220b328	0.03110033751743227
22	0x3f6b0393af957580	0.0032976040353520086
23	0xbfc7f266d25172eb	-0.1870850111908092
24	0x3fc0722e4e89eb99	0.12848452410602532
25	0x3fbf04de4658921e	0.12116803376608984
26	0x3fa69faae0e0bdac	0.04418691630450708
27	0x3fa5a85102abe534	0.04229977758036299
28	0x3fc81c7f031cb1fd	0.1883696332164532
29	0xbfb117ae5c1c0d0a	-0.06676759480255981
30	0x3f8cf30ee2427980	0.014135471610924766
31	0x3fc96b16e3442315	0.1985806092927979
32	0xbfa78cba8a1aaad4	-0.045995549543780406
33	0xbfc3725f4caed75c	-0.15192786449704954
34	0xbfaaab2a737d82f8	-0.05208714160722211
35	0x3f315571be04f600	0.0002644922915527592
36	0xbfc3db9ebe6b6859	-0.1551397733481419
37	0xbfc3bb9b7850f668	-0.15416282057587982
38	0xbf95cc25bd4c8ce8	-0.021286573103805134
39	0x3fc1b88f0dbd9dc5	0.13844478770191251
40	0xbfbbbb1eb9459733	-0.10832397483099214
41	0x3fc0e66bda8eee5b	0.13203190013688268
42	0xbfad50f7e77e2e80	-0.05725836468544987
43	0xbf4a4d6b07fdd300	-0.0008026859868396075
44	0xbfb1edb231307756	-0.07003320408736377
45	0xbfb0affa45b7d9ea	-0.06518520547965748
46	0xbfb0c918e9e136dc	-0.06556850156740829
47	0x3fb6ae18fd3331fe	0.08859401876106429
48	0x3fb6f982e630317e	0.08974474067526292
49	0xbf57faef2f309d00	-0.001463635996296564
50	0xbfad82af3815cc00	-0.05763766822465044
51	0x3f80c437d8b75050	0.008186756421231817
52	0x3fbf5d57e481b622	0.1225180561902666
53	0xbf91c2db22c68d30	-0.01734487914803856
54	0xbf8075305eecd660	-0.008036020180593073
55	0x3fbe6353b9a98dfe	0.118703110530582
56	0xbfaffbc541fdbef4	-0.062467731767240325
57	0x3fb4bdf02a5230fe	0.08102322610119825
58	0x3faba6f26d752004	0.05400807939673771
59	0xbfc785dfb1932310	-0.18377300425188325
60	0x3fb414ba0af7e0c2	0.07844126479892835
61	0x3fc56a652064b72d	0.1673094185038563
62	0x3f2cd51795bd4000	0.00021997368718951194
63	0xbfc58bf714b9da06	-0.16833389770518198
64	0xbfaf634e70cade20	-0.06130452277050957
65	0xbf9d528b5194ad68	-0.02863519368581305
66	0x3fc087e0b04da2a3	0.12914665802533873
67	0xbfc19124bb235a90	-0.13724192750551767
68	0xbfc049327a5edf1e	-0.12723380065084994
69	0x3fa79f90501a3b8c	0.04613924959004753
70	0x3fbabb2e0038739e	0.10441863541968963
71	0x3fc0b5e59bd48eb3	0.13055105313207135
72	0x3fc12a2d1dc1e75d	0.134099616556166
73	0x3faa5c6c2053e45c	0.05148637671113285
74	0x3fc70548bafe8e9f	0.1798487580355088

seq.0.bias f8 [3]
0	0xbfb8a8010e1b0c50	-0.09631353945137389
1	0x3fc5c6bf064ad0ee	0.17012775237311167
2	0xbfc091ba949566da	-0.1294472909456122

seq.4.weight f8 [64, 432]
0	0x3f6271c1a2e17a90	0.00225150889950438
1	0x3f990cb017257ac2	0.024462462818855675
2	0x3fa1a22ff5a492b7	0.03444051621980775
3	0xbf932fc5fa75b8de	-0.018736928378921706
4	0x3f7de757c42fd9f8	0.007300703847241234
5	0xbf80b4107b3bc734	-0.008155945549762934
6	0xbf6400ac01a0df80	-0.0024417266368139123
7	0x3f9438c98c1e42e6	0.01974787633622812
8	0xbf766d2ba2c6e6e0	-0.005475206806687644
9	0xbf773b66b466e148	-0.005671883764471204
10	0xbf785d006b2a6a38	-0.00594806827089172
11	0xbfa3930b91c9fa88	-0.03823124079371093
12	0x3f6ab5bc5fac92e0	0.003260486524043635
13	0xbf968f7afeff7205	-0.022031709493477453
14	0xbf95aa3e99c358aa	-0.021157243857339005
15	0x3fa47e3b21921257	0.040025565956089686
16	0xbfa313575363ef33	-0.03725693600605808
17	0xbf9315aa4a2cd6b8	-0.018637333657543137
18	0xbfa3f21e3956ae6a	-0.03895658922132557
19	0x3fa82c66a27048c5	0.04721375210660165
20	0x3fa86543bbce5bab	0.047647587466762197
21	0x3fa63e807a0f4a0f	0.04344560136782515
22	0xbf99f122834534a9	-0.02533391882143535
23	0x3f95c993e13abb0a	0.021276770231163623
24	0xbfa1c88931288ba5	-0.034733092547205836
25	0xbfa7c8a3ac935cee	-0.046452631775247485
26	0xbf8e4adf85135d18	-0.014791246651312082
27	0xbfa6f60660314ee2	-0.044845771066915466
28	0x3f8afbf0f53e7b18	0.01317585228372091
29	0xbfa7ce0a1cf9f4a7	-0.04649383166995707
30	0xbfa8533ba762d81a	-0.04751001756942248
31	0x3fa51970741fab1b	0.041209711241967116
32	0x3f65ca7a1522ac00	0.0026600250649457813
33	0xbf970f786f5e745e	-0.02251995258085448
34	0x3f994223efdc198a	0.024666368021848885
35	0x3f6b13569ef8c660	0.0033051196876606043
36	0x3f9fa83e08c2c7fe	0.030915231022568428
37	0x3f9160d25d1d2cc2	0.016970908101296762
38	0x3f479bf020aac480	0.0007204935548853625
39	0x3fa54de97d258abf	0.041610046889009926
40	0x3f826dba7c2feda0	0.008998352923291375
41	0x3f9bd9f787be94e2	0.02719866529482296
42	0x3fa670a9263424e3	0.043828283227478136
43	0x3fa1c5aad32d27db	0.03471120670162949
44	0xbf9a48f8d7cb4c01	-0.025668991251972532
45	0x3f9ddcf85d19b776	0.029163246805573327
46	0xbfa3e9ddbaf2faa6	-0.03889363200277289
47	0xbf9c9c5598a20c99	-0.02794011825654916
48	0xbf9c945a2fb33291	-0.02790966907632481
49	0x3fa5dfe08c59404d	0.042723672039415385
50	0x3f90d6f56c3f6866	0.016445002300180887
51	0x3fa2e8cdc4bcfbad	0.036932401910682124
52	0xbf6843e4252b98a0	-0.002962060543143144
53	0xbf9c3191875b8ac5	-0.027532838713237213
54	0x3f7fe0dc87fa01e0	0.0077828039644604885
55	0x3f524606762a2320	0.001115328130852862
56	0x3fa4b74fa84946f7	0.04046105317378406
57	0x3fa780ceddd40527	0.04590460260261358
58	0xbfa2cc2e47c07af2	-0.03671402574422257
59	0x3fa22c889a30dc8b	0.035496014425398924
60	0x3fa038e3578284ed	0.031684021408418285
61	0xbf8041c977bdd2f8	-0.00793797871276912
62	0xbfa5b5f3a0603846	-0.04240380604470366
63	0xbf9b89f9362a85ad	-0.026893514567410005
64	0xbf598f902af9c7e0	-0.001560107029856976
65	0xbf6a700bbaaff400	-0.0032272557341443964
66	0xbfa5dbc554df9171	-0.042692343340408175
67	0xbf8f1504f5ede0dc	-0.01517681003109355
68	0x3fa30e0c7c8b35d9	0.03721655865011159
69	0x3f83438bb322af70	0.009406176952630324
70	0xbf7f4592f947a928	-0.0076347104227159415
71	0xbf7d65213cb9a2f0	-0.007176523049204006
72	0xbf6a0550aac94e80	-0.0031763625650372274
73	0xbf9982bdaa0f64c9	-0.024912799362799363
74	0xbf78f2557ed38100	-0.006090482679809606
75	0xbfa86d54971b1d97	-0.04770912499003115
76	0xbf9128d59641e904	-0.016757333084094675
77	0xbf962baabc19a262	-0.021650951128693648
78	0x3f9cc4c7e0c0029a	0.028094409077314177
79	0x3f5e4f7d6b863700	0.0018500065617418904
80	0x3f9d320ae8a2adb2	0.028511209916059328
81	0xbf9811dec1a28e0d	-0.023505669182339917
82	0xbfa6576f58b5e999	-0.04363582570927633
83	0x3f91037c0010af3e	0.016614854339578537
84	0x3f950a254bfb2f96	0.020546515238308048
85	0x3fa48cb95db815a1	0.04013613957435359
86	0xbf923bd22bef5f2b	-0.017806323939878837
87	0xbf977e0ce7191e00	-0.022941781621083734
88	0x3fa5a165890f8ae1	0.042246983510059406
89	0x3f8801b920f06850	0.011722036664696983
90	0xbf8f79f39b5b2ef8	-0.015369322947115446
91	0xbf460401473e6740	-0.0006718641511611403
92	0x3f7ec07c2e306bf8	0.007507786826887568
93	0xbfa561bb40383344	-0.041761256779955264
94	0xbfa5996cb8a76aa3	-0.04218616251065057
95	0xbfa092949f5c46e0	-0.032368320897274705
96	0x3f7bfddd53b5d868	0.006833900984352416
97	0x3f9abca046a48f22	0.02611017638368119
98	0x3f8f66eb794f468c	0.015333022727563227
99	0xbfa4cc41c95826f8	-0.04062085707489688
100	0xbf8d821625fcdbdc	-0.014408276590627205
101	0x3f9d5a7695980712	0.02866540229843568
102	0xbf99ced793711c9e	-0.025203102468620224
103	0x3f87425909ec02d0	0.011357017150204568
104	0x3f9da766628e6612	0.028958892598529636
105	0x3fa302afa242af19	0.037129868085086844
106	0x3f97fb629348e9fe	0.023419895400573758
107	0x3f95724cb130a1f6	0.02094383079034575
108	0x3f7828537f853218	0.005897833027415554
109	0xbfa08decc0a2a5de	-0.03233280040269525
110	0xbf9cb97c0fbf8b00	-0.028051317654795405
111	0xbf9834caf1c288d3	-0.023638888364651955
112	0x3f984d50378ea542	0.023732427016203823
113	0x3f6102cb29573070	0.0020765274045740287
114	0xbfa39561a94b21ae	-0.038249065318783124
115	0xbf98c63ab348f257	-0.024193684761700442
116	0xbf6232554a15c480	-0.002221266346787376
117	0x3f9158be43dce606	0.016940091030141623
118	0x3fa377bbd21216e9	0.03802287043894898
119	0xbf7f614783e734f8	-0.007661132198746083
120	0xbf784256a644d058	-0.005922640299378022
121	0x3f7837030d5ef550	0.005911838457845889
122	0x3f63a8a1347a4400	0.002399744847771945
123	0xbf9d6fbc7c53c3c9	-0.02874655255158468
124	0x3f9c1a3078034a26	0.027443654370310842
125	0xbfa6ea01ca952924	-0.04475408170636033
126	0xbfa50bbfb7aed31c	-0.04110526196692474
127	0x3f80ee00ef79f228	0.0082664559442885
128	0xbfa5a0055bb9b877	-0.04223648781486216
129	0x3fa491158095086b	0.040169403024734894
130	0xbf7df2a6f8c3bbb8	-0.007311489327760982
131	0xbf6048e69fe6a7b0	-0.001987886847207819
132	0x3fa227ec1918a941	0.035460832656399884
133	0x3fa5053869050677	0.04105545312860397
134	0xbf849feb789b4dfc	-0.010070647829173211
135	0xbf6322a0c4627de0	-0.002335847852989778
136	0x3f817cf1855127ac	0.008539091950428311
137	0xbf7e939157374298	-0.007464950310762795
138	0x3f9a9f7d1635894a	0.025999025803124888
139	0x3f9aacbad8b95e82	0.026049537160672383
140	0xbfa80fe3f8b0554a	-0.04699623499633761
141	0xbf908d1bd49da050	-0.016163287021669526
142	0x3fa347f6412ebcbf	0.0376584009712757
143	0xbfa4d7a1151f7b15	-0.04070762045716073
144	0xbfa2007023610465	-0.035159591978761985
145	0xbf9c0a7434cac3a4	-0.02738362858025635
146	0x3f68c63006f12c80	0.0030241907148017
147	0xbfa88ab31f0f1946	-0.04793319467676098
148	0x3f82a17d7fcacdd8	0.00909708067170005
149	0xbfa7f8c6defea8c7	-0.046819891663589845
150	0x3f9040cd6ad3cf62	0.015872201581216834
151	0x3f9dbf11544fc366	0.029049177905054256
152	0x3f8be09ba5e39020	0.013611999511745465
153	0xbf8fea97437cd054	-0.015584165331894585
154	0x3f975da39c89e44e	0.022818142346725794
155	0xbfa6029f3aec9127	-0.04298875421798903
156	0x3f92db7c843484fa	0.01841539914051269
157	0xbfa62a97094d628a	-0.043293685803921525
158	0x3fa2ec4a8fdaf67b	0.03695900922819547
159	0x3fa7f22db9f60d71	0.04676955122979621
160	0xbf99c96dec406754	-0.02518245462861242
161	0xbfa64797e05dfe27	-0.04351496328217435
162	0x3f9b999c439d9096	0.02695316469852623
163	0xbf95e290b6fe526f	-0.02137209050086358
164	0x3fa7c796ffeb1ae5	0.04644462465289737
165	0x3fa4e334b50a1311	0.0407959433551125
166	0xbf7adb96ffc01ff0	-0.006557073440497149
167	0x3f7cb760eed0ce50	0.007010821002996062
168	0xbfa21aeb1bcc70b9	-0.03536162103975599
169	0x3f87ecf520c012c0	0.01168242937274877
170	0xbf6390b263f4d4d0	-0.002388332766396141
171	0xbf96c2802560d4a2	-0.022226335793864245
172	0x3f88e46966f25848	0.012154410795386053
173	0x3f6d38e1f9325f90	0.003567162851663093
174	0x3f84d8602d68bf28	0.010178328882005497
175	0xbf9f925b9c46175b	-0.030831748402781894
176	0xbf9e4a9ca8ad42d8	-0.02958149699708454
177	0xbfa3a453f330c056	-0.03836309760697591
178	0x3fa89ba955e92841	0.048062602746157264
179	0xbfa80d97edb29b85	-0.04697870995123935
180	0x3f4c2a3427839980	0.000859523263923731
181	0xbf9b607e80eb9729	-0.026735283487958093
182	0x3f7f9032988db1d8	0.007705876961022949
183	0xbf970cdfa5ec0775	-0.02251004648406459
184	0x3f9c07064f461726	0.027370546902168467
185	0x3fa28e0cf8e38193	0.036240010625763784
186	0x3fa1e874f853a50d	0.034976630509684005
187	0x3f97c02c53f25ad2	0.02319401991243348
188	0xbfa1c3cab2fce86e	-0.03469689783965256
189	0xbfa65894cc9f34ce	-0.04364457128358766
190	0xbf9f74ef4d4ccd5f	-0.030719508259790525
191	0x3f606a3e7411ec00	0.002003786067289237
192	0x3f6ae1cb048a0a80	0.003281494635588189
193	0x3f682aa1ed3612c0	0.002950016272452366
194	0x3f96434d39c30116	0.021741110468384305
195	0xbf85ac5b8fbc5ba0	-0.01058265240093964
196	0x3f96824e27712f62	0.021981450230938455
197	0xbf8500192b03cf98	-0.010254093766412883
198	0xbfa209fddd98ebf7	-0.035232480335672216
199	0xbf99a934e4bb22e5	-0.025059534512169263
200	0x3fa1ced5e81c3127	0.03478115518928098
201	0xbf7f23b3c72b40f8	-0.007602407701327467
202	0xbfa3d4b6da155d10	-0.038732256051554725
203	0x3fa0d446785ee355	0.03286953181618083
204	0x3f96380463d7c08a	0.021698063463134555
205	0xbfa5e0f87fd0d71e	-0.042732015230667594
206	0xbfa0257db9f86f03	-0.03153603453776379
207	0x3f9ef92fc66942f2	0.030247446522767292
208	0xbfa1299039f6552c	-0.033520228457897566
209	0x3f81765babe51320	0.008526531394303982
210	0x3fa84260e733d817	0.04738142797752703
211	0xbfa4d8d5454d15af	-0.04071680518112985
212	0x3f909475df6c671a	0.016191331636128493
213	0xbf955a3ea8c7d037	-0.020852068950219595
214	0x3fa7b7b1d05a5605	0.046323353465748375
215	0xbfa7b0d28f808f07	-0.046270923631054166
216	0xbf9583f4482f811f	-0.021011177926881005
217	0x3f89c2bab1020ed8	0.01257844784436861
218	0x3f98c09ca545f68e	0.02417225607631806
219	0x3f95f3bc409643c2	0.02143758911330785
220	0x3f982d255dbbd00a	0.023609718175933415
221	0xbfa4eca868c44752	-0.040868056095986774
222	0xbf91ac3d9d8d975f	-0.01725860857131722
223	0x3f8596695a098ad4	0.010540793476314127
224	0x3fa4b280297f525f	0.040424351754755554
225	0xbf83150a2cf2ab78	-0.009317473885251934
226	0xbf854df8e64a5ab4	-0.010402626541048711
227	0xbf9a063615c0ef74	-0.02541431911252752
228	0x3f9cbaeb3b667302	0.02805678892183306
229	0x3fa4ba0e5f71d1e5	0.0404819957265408
230	0xbfa7002fe25f94f2	-0.04492330206248053
231	0x3fa627a6d2f5abdd	0.04327126813117108
232	0xbf8df9e749154958	-0.01463680927068782
233	0xbf9ed8e76ba6a3c7	-0.03012429804371999
234	0x3f8da5964a72479c	0.014475988528179155
235	0x3fa8775a3804331b	0.047785586679401436
236	0xbf72a9ff5b71e248	-0.004556653489196601
237	0x3fa814221c4d5f91	0.0470286044644005
238	0xbfa69353c3501f8c	-0.04409276732627551
239	0xbf986f368bd20bda	-0.023861744197812708
240	0xbfa2752a159880fb	-0.036050143371769004
241	0xbf63a6cc7900c820	-0.0023988717657852515
242	0x3f69b95fc6277700	0.003140151079818021
243	0x3fa17fddd63268ad	0.03417866935451861
244	0x3f987dab5582e3de	0.023916890234179415
245	0xbfa775b3f63e04c5	-0.045819877442235625
246	0xbfa4e4f1dbe37868	-0.04080920991121745
247	0x3f9ca0dff90fde8a	0.027957439018762055
248	0xbf87b22e2228bc5c	-0.011570320527509441
249	0xbfa7ff7ed3ab53b9	-0.04687115033963302
250	0xbf982466a5b99070	-0.02357635866646074
251	0x3f831732464a6a6c	0.009321587343312752
252	0xbf8f93927bb576c8	-0.015418190384191802
253	0x3fa862001b39c759	0.0476226838335509
254	0xbf8ee0d6c8443ba0	-0.015077283846521017
255	0xbfa6145b58bffcd3	-0.04312406023381645

seq.4.bias f8 [64]
0	0x3fa388f752ff7cba	0.038154343492118284
1	0xbfa252ce553ca3aa	-0.03578800955285229
2	0xbf68827ce98acb50	-0.002991908997807803
3	0x3f9dd936c3570a04	0.029148917839629376
4	0x3f9fe8705db66248	0.031160121650460476
5	0xbf8f417cfe5f4660	-0.01526162768633127
6	0xbf9ecf553c810035	-0.030087787454476895
7	0x3f9d60a0fe61ce20	0.02868892243027521
8	0xbf3f1b63576f6700	-0.00047465491610197696
9	0xbf8b91b9452f0064	-0.013461539672676
10	0x3f9a6cb8a3500d6c	0.025805363624397712
11	0xbfa3fc1696f7ae1f	-0.0390326556478977
12	0x3f9dd28ccc697de0	0.02912349698669725
13	0x3f9b311f810ec9b4	0.026554577114163272
14	0x3f7bc22983cea1f0	0.006776964347331646
15	0xbf90390ff9dee952	-0.015842675805950286
16	0x3f72b2db2ce310e8	0.004565101770087156
17	0xbf6cf2c1273c7070	-0.0035337231182790904
18	0xbfa34e9c9a2a038a	-0.03770913488279522
19	0xbf7b5d7a5cbeb948	-0.006680944421459785
20	0xbf7959b6af6b3338	-0.00618907319467326
21	0xbf9b018a6296344e	-0.026373064296013653
22	0xbfa0d1563bb6a775	-0.03284711340832206
23	0xbf98934b2bbeff48	-0.023999380631493566
24	0x3fa04537b59edf1e	0.03177808849380724
25	0x3f93fcbd496b3874	0.019518811803941508
26	0x3fa774a89e4141ea	0.045811909979082646
27	0x3f7db07413419218	0.0072483572185757725
28	0xbf6e9c81fafa3e80	-0.003736738079005708
29	0xbfa3969cc2795d86	-0.038258455981742975
30	0x3fa4f1e1534fa5a0	0.04090789930325944
31	0x3f93cb2be25182d8	0.019329724968318057
32	0x3f93b3e776dea814	0.01924096739791288
33	0xbf83ad6751e8df94	-0.009608084857162948
34	0xbf7b63bf0cf4b6d0	-0.0066869223513045944
35	0x3f92f9df0119275c	0.018531307642013814
36	0xbf97ca1dad55f3f8	-0.02323194857079966
37	0x3f6425240e2ce860	0.0024591163832186486
38	0xbf810395869bb3d0	-0.008307617350021973
39	0xbfa5a66bf861980c	-0.04228532225606338
40	0x3f947e4837038d60	0.020012977941303745
41	0x3fa5bc2d424c356e	0.042451299994449396
42	0x3f9c4ce0bec93c14	0.027637015957505964
43	0xbf902ecc849bf7a0	-0.01580352362997639
44	0x3f85e259892a36cc	0.010685634134712706
45	0x3fa1f5be823fc60a	0.03507800426440262
46	0x3f67d247301a9a80	0.0029078855885303345
47	0xbf84739e7ceea3bc	-0.009986150920512908
48	0x3f92574631ba0364	0.017911049637862844
49	0x3f86faccc43f22d4	0.011220550288173405
50	0xbfa31a06a3ced2c8	-0.03730793714149666
51	0x3f80fb409cbcd75c	0.008291725905660456
52	0x3f66ebafd1dfb670	0.002797931097112287
53	0xbf967a42a157fce6	-0.02195076093448458
54	0x3f9f1cfe6142cac0	0.030384039579710587
55	0xbf98c6a0d3e85a86	-0.024195206579032312
56	0x3f9e772e52b5461c	0.029751514242269392
57	0x3f942e5ac5b784dc	0.01970807868736278
58	0xbfa48e6d504f9885	-0.040149131825999475
59	0xbf9239354ce72ae0	-0.017796356982027528
60	0xbf60cb1768d55170	-0.002049966546716124
61	0x3f9c57ff6920b658	0.027679434577456113
62	0x3f9b8173525b2a20	0.02686100187455953
63	0x3f947ca2733ec954	0.02000669315720789

seq.6.weight f8 [10, 64]
0	0xbfab19a057726de0	-0.052929888415032655
1	0x3fbeff5440ef39e5	0.12108351311983474
2	0x3f9268246d12e304	0.017975396306357375
3	0x3fbe002e41bf7759	0.117190257121789
4	0x3fbc0a77d4e5ee87	0.10953473041257143
5	0x3fa643d5f75527da	0.043486296121571136
6	0xbfb15aeaf83e71ca	-0.067793546301295
7	0x3f72a8facc531f50	0.004555682831046529
8	0xbfa75395c100f404	-0.04555957776072009
9	0x3f9638dfe873b16c	0.021701334536304115
10	0xbf98d58163eab588	-0.024251958583297234
11	0x3fa383bf78fd845a	0.0381145320122946
12	0x3fb9e3b522126391	0.10113079149085837
13	0x3f9a930516efeb54	0.025951461338972706
14	0x3fa300f78b7ec636	0.037116752413009754
15	0xbfaf6b96f6deaf20	-0.06136771930263607
16	0x3fb3e0eb19e39e83	0.07765073186930675
17	0x3f8e72ba49f1a3d8	0.014867263204182565
18	0x3fb9fed9c97a5ad1	0.10154496354003163
19	0x3fad3613916da65e	0.05705319547889752
20	0x3fab12e3389262a2	0.05287847581457085
21	0xbf4d1b791ae49900	-0.0008882848103766439
22	0xbfbbb3d474c7218d	-0.10821273661634319
23	0xbfb5524e28589b34	-0.08328712925923015
24	0x3f46f565a9164280	0.0007006403340473338
25	0xbfbfabc6f8d4cedd	-0.12371486258490046
26	0x3fb19423f7635b6b	0.06866669454335088
27	0xbf9037e01d287b60	-0.01583814790694349
28	0xbfb1fb529605a37e	-0.07024112856528394
29	0xbf7bde39b9e12a20	-0.00680372761969264
30	0xbf974059c67926b8	-0.022706415881009717
31	0xbfb4c90cbab1affc	-0.08119277532540531
32	0xbfaadf2ec356c75c	-0.052483998627748746
33	0x3fbdfb74fab197c7	0.11711817856266214
34	0x3f855caed48015a8	0.010430684909816204
35	0xbfb91f0d81733397	-0.09813007746124779
36	0x3fb418359c1b53e5	0.07849440633010792
37	0xbfbe2a613c048b4f	-0.11783416476513973
38	0x3fb6769816700ab1	0.08774710223955641
39	0xbfbf1215f1791709	-0.1213697161229811
40	0x3fa4b813beca7f2e	0.040466897048871395
41	0xbfbb78ca0b1d1deb	-0.10731184741336335
42	0x3faba7a59c19a73a	0.05401341944236866
43	0x3f6b2a3f4ff594a0	0.003316043526569404
44	0x3faaf32f0bf70636	0.05263659497314814
45	0xbfac890a68787ce4	-0.05573303723599013
46	0x3fa93f77616cd462	0.049312334673609085
47	0xbfa122bfcd3a42dc	-0.03346824054927364
48	0x3fb652d9093e597d	0.08720165706322365
49	0xbfb4149294c149f8	-0.07843891269411774
50	0x3fb460fc43ab9fc3	0.0796048798762277
51	0x3fa4d1d3c4fa6f36	0.04066335467834252
52	0x3fb534973204eb95	0.0828337189786182
53	0xbfbe44d61c3bb14f	-0.11823785962378007
54	0xbfa534059d298284	-0.04141252082331895
55	0x3fba30935b420e91	0.10230370500544896
56	0x3f98f764a2141fcc	0.024381229774945543
57	0x3fb05129dec4f66d	0.06373845757203762
58	0x3fb52d9b0ae8f927	0.08272713676794706
59	0x3f9a6e8b8d1e569c	0.02581232117480302
60	0x3fb8a2249e19ab25	0.096224106405924
61	0xbfb82aa8977c9b5d	-0.09440091799170376
62	0x3fbd11259d418c8d	0.11354289139994674
63	0x3fb06ac5500b8b5b	0.06412919239259678
64	0x3f91dddf65ae7f34	0.017447939473299104
65	0xbf59927644986780	-0.001560798164410987
66	0xbfbd7152c6deb711	-0.11501042704795973
67	0xbfb313cc1f36c996	-0.07452083360730052
68	0x3fb615f284784a5d	0.08627238973739666
69	0x3fb476e9b921d569	0.07993946809604825
70	0xbf92261758e754f0	-0.017723431397674128
71	0x3fa978bb0a2cba4a	0.04974922656252952
72	0xbfaa9373e72f2ca8	-0.05190622517656013
73	0xbfbb781247ff86bf	-0.10730089433448152
74	0xbfbfcfccd670c153	-0.12426452861177965
75	0xbfa5d18e92764570	-0.04261441743723082
76	0xbf963b77b599a480	-0.021711225947374846
77	0xbf9dc69ee2bd2fe8	-0.02907799014000992
78	0x3f955eea5d6e1f9c	0.020869886353039754
79	0x3f974615ba755f6c	0.022728290086291222
80	0x3f84ffc395898508	0.0102534561166885
81	0xbfb4dc885062845c	-0.08149005854149166
82	0x3f4eab167bc4f180	0.0009359226019465677
83	0x3fb0c42a3668c881	0.0654932387194851
84	0x3fa6d8facc999052	0.044624173617905286
85	0xbf94e03ae00249c8	-0.020386619493885566
86	0x3fa41a327e159876	0.039262369052082954
87	0xbfbb65b385b231eb	-0.1070205880552703
88	0x3fbae84ba66836ad	0.1051070481555267
89	0x3fae693d060e575e	0.05939665507246049
90	0x3fa2e01dff87f97a	0.03686612839009036
91	0x3faa9725d0fdece2	0.0519344155900059
92	0xbf9fa90937084d50	-0.030918258651650377
93	0xbf760537f6212140	-0.005376070594202809
94	0x3faedc5217ad307a	0.060274663343620596
95	0xbfb1c383378096aa	-0.06938953499828907
96	0xbf8efa1083bb2980	-0.015125397701372334
97	0x3fb6f7234701fda5	0.08970852359379096
98	0x3fae69b969ced836	0.05940036217309379
99	0xbf765c813ac82ba0	-0.00545931320494733
100	0xbfb8f8ebf8c214ed	-0.09754824469753816
101	0x3fb526c0a3888a71	0.08262256615174991
102	0x3fb06ed0fac39f17	0.06419092294856586
103	0xbfb2d0b8fe031258	-0.07349735452141581
104	0xbfac20a9edd073c8	-0.05493670490270791
105	0xbfbb7c3975e83beb	-0.10736426476090315
106	0x3fbefbcae61e1a77	0.12102954977135903
107	0xbfa742b7469c0004	-0.04543087708407259
108	0x3fbaa267498ff28d	0.10404058023409331
109	0x3f8873678dbd2308	0.011938866627717384
110	0x3faadcbface019ca	0.05246542916579562
111	0xbfb0d90e3cabf460	-0.06581200581781976
112	0xbfba1dbcd1e75d47	-0.10201625942805946
113	0x3fb3880bfe66649d	0.07629466019570193
114	0xbfa85d3f4305f83c	-0.04758641904025793
115	0x3fbced905a748fa3	0.11299993713742977
116	0x3fbc0433e1b7eb59	0.10943912754730202
117	0xbfa026f589f27b10	-0.03154723462033904
118	0x3fbdf1b8d2d7735f	0.11696963450908758
119	0xbfb81d86ec0116d5	-0.09420054685423492
120	0xbf656b2c14641180	-0.0026145802431775667
121	0x3f950b6e5a031c6c	0.020551418537050045
122	0x3fa60c15d7010cea	0.04306095361291702
123	0xbfb95797b1751671	-0.09899280626731312
124	0xbfa963aa77c414d8	-0.04958851539599046
125	0x3fb846c4b1e286a3	0.09482983916179903
126	0xbfa581700c03c694	-0.04200315615333952
127	0x3f99fd8211458a24	0.025381119064500038
128	0x3fa0ee42fb3dc95a	0.03306779210005813
129	0x3fa321872e79838a	0.03736517374341648
130	0x3fa1fdfdcfaf3c2a	0.035140925981629614
131	0xbfb0f8eb14501580	-0.06629819150847105
132	0x3fb726d0f8030d77	0.09043603949526423
133	0xbf9867c54f532be0	-0.02383335396443076
134	0xbf7e384d08bc8c60	-0.007377911486204786
135	0x3fa4f08f9475ac22	0.04089783370258028
136	0x3f892eff6710dc68	0.012296672184772997
137	0x3fbc96de1a09c5fd	0.11167705665300072
138	0xbfa23661813a9590	-0.035571143174176645
139	0x3fbfb9b7028dbed1	0.12392753422113435
140	0xbfa47fc8e5ff7a9c	-0.04003742034523336
141	0xbf9d1c8804975700	-0.028429150848601203
142	0xbf904454d4558c68	-0.015885663471078365
143	0x3fb12b2c0944f901	0.06706500269226369
144	0xbf907b4a52763978	-0.01609531524950955
145	0xbfbf2e444c3eb5c1	-0.12179972516488304
146	0x3fb6b36b8f61273f	0.08867523432232093
147	0x3fb386cfc39b6f23	0.07627581143918553
148	0x3fb05ae24cd7fa45	0.06388677955690365
149	0x3fa7f045fe0651fa	0.0467550156201106
150	0x3fbcdf3ceaac95d5	0.11278134087896004
151	0xbfb4b28e9131a7c6	-0.08084956211828773
152	0xbfb2c655cd39e194	-0.07333885441210547
153	0xbfac4b156a8bf3f8	-0.05526034284228126
154	0x3f59ee5f516bf9c0	0.001582711299931469
155	0x3f933e1e12283394	0.01879164682218322
156	0x3f86d30d09ea8f18	0.011144735207671938
157	0xbfb49bba7f091c38	-0.08050122834639317
158	0x3f5e873ff9c17a40	0.0018633007776071159
159	0x3fbb1335e36ad961	0.10576187898809543
160	0xbfb6df5869cf8cc4	-0.08934547980566082
161	0x3f969c6765f0d56c	0.022081008526773457
162	0xbfa76961e802af2c	-0.04572587926062818
163	0xbfba4be8b763571d	-0.10272078015563264
164	0x3f95a25f46fc566c	0.021127213199255854
165	0x3fb278d76799b413	0.07215639380747545
166	0x3f973bcd8ac834ec	0.02268906745489556
167	0xbf7e30eadaa4e640	-0.007370870016808306
168	0xbfb2028003b74432	-0.07035064783782799
169	0x3fa75de5149801d6	0.04563823582066433
170	0x3fbbe8883fbe9c67	0.10901691013587965
171	0x3fa9feaa80e965ba	0.05077107261304144
172	0xbfbe956b41b76477	-0.11946745256808976
173	0x3fb24093c2bb8ceb	0.071297869722503
174	0x3fbd0936a0a8d853	0.113421835158847
175	0x3faa203ff3384d0a	0.05102729648583633
176	0xbfb5b9bebedc5ae6	-0.08486549529730389
177	0xbf9a56e6f262cfd0	-0.02572213034063947
178	0xbfb7b91f0e7b8fba	-0.09266847709255802
179	0xbfa6f1bcfd9aad08	-0.044813066442055016
180	0x3f8dea722af86e08	0.014607326446870253
181	0xbf87eeedd6077290	-0.011686189741277248
182	0xbfacbcfc93095f94	-0.056129353474431515
183	0x3fbe7a79f32e16ad	0.11905634104740655
184	0xbfa3eb390920fe20	-0.03890398250996108
185	0x3fae08c007a19ff2	0.058660508090554134
186	0xbf972090c14c5048	-0.022585164831142174
187	0x3fa28785d2a1d2a2	0.03619020649140238
188	0x3fae654c8ba76efe	0.05936660008202742
189	0xbfbaedb0f4e87fcd	-0.10518938044742683
190	0xbfa733b605b05224	-0.045316398806026364
191	0x3f9cd9cb8b1c82b4	0.028174572339710394
192	0xbfac0df2867f5fac	-0.05479390994850006
193	0xbfb78b575c444154	-0.09196992876627991
194	0xbf75bbfa65031e20	-0.005306223014663242
195	0xbfba38bc897ba033	-0.10242822987095294
196	0xbf53e554621f7780	-0.0012143444114296187
197	0x3fb0ef6c6afdde87	0.0661533127985142
198	0x3fb470fc5eaf633b	0.07984902679107801
199	0x3fbd40cb707d96d1	0.11426993843414414
200	0x3f899b84d9fdc618	0.012503660109106682
201	0xbfaf4ff10f3d4148	-0.06115678130174956
202	0xbf4d8b2961023700	-0.0009015991254430478
203	0xbfa977b3301291a0	-0.04974136316130573
204	0xbfbdec0e69375589	-0.11688318318132053
205	0x3fa5d573bb0bc346	0.04264413507724511
206	0xbfba5496059b0627	-0.10285318028311306
207	0x3fb1f08af146f307	0.07007664099269216
208	0x3fbf6518ee3f1279	0.1226363736778441
209	0x3f9e96f5a047fc54	0.029872739703929632
210	0x3fa3c4ae18fc12b2	0.038609924840817725
211	0x3fb440d94796ffc1	0.07911451337622478
212	0xbf65ce869b8a8000	-0.0026619557432496777
213	0xbf93a84698867b18	-0.01919660860005043
214	0xbf72cd3219b631c0	-0.004590221123532634
215	0x3f95a04611a02c6c	0.021119208169733047
216	0xbfbb0d37985c3e8b	-0.10567042798742869
217	0xbf7b27f0f0c68800	-0.006629887746756324
218	0x3fa0c015644e589a	0.032715481275930006
219	0x3fb3ae1a1d7f62c7	0.07687533588558458
220	0x3fbfb0c7d5fa45f1	0.12379120801985956
221	0xbf81414ba703bce0	-0.008425322565442206
222	0xbfb28a5b3715b174	-0.07242364973871479
223	0x3fa38351af9c3bc2	0.03811126011543521
224	0xbfba3634a3f0038b	-0.10238961222058955
225	0x3f5401fd9f2aabc0	0.0012211777472354995
226	0x3fbbe3baaf1ffa4f	0.10894362235556197
227	0xbfa48979191b7674	-0.0401113360546618
228	0xbfb404aa735cb340	-0.07819619480569617
229	0x3fb3e8be27d2745b	0.07777012321680969
230	0xbfbb0d17d355a071	-0.1056685343697852
231	0xbf7b2f757d22cd20	-0.0066370572478036405
232	0x3f739c67485700f0	0.004787829825943599
233	0x3f917ae2c010c704	0.017070334408521695
234	0x3f9f7834ebe543d4	0.03073198976318621
235	0xbfa09f561c8a8f40	-0.0324656400528327
236	0x3fb6834ef89abc29	0.08794110841221027
237	0xbfa337c7e3a145d4	-0.03753494886099032
238	0x3fb14c22df9b5b8d	0.06756799658920283
239	0xbfb9d8b0d3f68f05	-0.10096268820649008
240	0xbfb6411be6da45b8	-0.08693098436403701
241	0xbf802b46136d8f80	-0.007895038097281093
242	0x3f8a0b0552d5b2d8	0.012716332998672739
243	0x3fb0d881d976141b	0.0658036380683175
244	0x3fa5afb03606b50e	0.042356020541186465
245	0x3f98e758e2973fbc	0.024320019559865833
246	0x3faaae9eb44e91ce	0.05211349440586198
247	0xbf88c29ce81c90a0	-0.012089944680674869
248	0x3fb9462572d242c1	0.09872659734015611
249	0xbfb464b34b338a8a	-0.07966156564683949
250	0xbfbaba8a3fee73a3	-0.10440887509180512
251	0x3fbd469186f36513	0.11435803932853998
252	0xbfa7af094e4b56a4	-0.0462572963785253
253	0xbfbc966f136cd21d	-0.1116704389976992
254	0xbfb4ce2fc056dbfe	-0.08127115674766114
255	0x3f7f833aac651b70	0.0076935092859632265

seq.6.bias f8 [10]
0	0xbfb8b2eeb971a8c0	-0.09648029353562304
1	0xbf7470a4aa4226a0	-0.004990237448632279
2	0x3fb9f02914c2d822	0.1013208079992585
3	0xbf7eab50939c4640	-0.007487597229344056
4	0xbfa6043d8a54f190	-0.04300110162373294
5	0x3fb66f197ec70af2	0.08763274521974632
6	0x3fbc4150d545904c	0.11037163931683941
7	0xbfba3b9114c1bd56	-0.10247141606099794
8	0x3f8da7c250335ab0	0.01448013121846023
9	0x3fbce9ec67d1bee8	0.11294438872004842
